best_model.pth (torch, 465333 bytes, 32 tensors)

c1.0.weight f4 [16, 3, 3, 3]
000000 21 8a 35 3e 94 c7 24 be a7 ce 9c bd 37 ef ba 3e
       0.17728473 -0.16091758 -0.07656603 0.3651063
000010 b8 26 ab be 0f 6e 9c 3d dd 27 f6 bb af dd c6 be
       -0.33427978 0.076381795 -0.0075120763 -0.38841006
000020 1d 2f 97 3e 33 ca 46 3e 72 03 f7 3d 1d 92 13 be
       0.29528132 0.1941307 0.12061204 -0.14411207
000030 41 2b a4 3e 9d ee 61 be b3 0a 32 be 46 95 9c 3e
       0.3206425 -0.2206368 -0.17386894 0.30582637
000040 41 49 a6 be f4 ec 84 bc c9 f7 0a bd 13 51 30 3d
       -0.32477763 -0.01622627 -0.033927713 0.04304607
000050 6b 89 bb 3d 44 b8 c6 3e 7c 43 97 be 52 6c 06 3d
       0.0915707 0.3881246 -0.29543674 0.032818146
000060 56 19 96 3d 86 8f 17 be f2 77 0d be dc 74 9e be
       0.07329051 -0.14800844 -0.13815287 -0.30948532
000070 ec bc 10 be a9 6d 33 bd e2 81 94 3e 01 ca 2b 3f
       -0.14134568 -0.043805752 0.29005343 0.6710511
000080 1c ab c1 3c 09 bc 0a 3d 4d e7 e6 3d c6 a2 93 3e
       0.023641162 0.03387073 0.11274586 0.28835124
000090 14 38 0b 3e 86 85 a5 bd 8c 3b 8c be 6c 1e c7 3e
       0.13595611 -0.08082108 -0.2738918 0.38890398
0000a0 ad d3 de 3e 6e c8 97 be 59 d4 04 be fe 78 e7 3d
       0.4352087 -0.29645103 -0.12971629 0.11302374
0000b0 db 3f 16 3c 86 d4 81 3e 06 22 a4 3d d9 1c 09 3d
       0.009170498 0.25357455 0.08014302 0.033474777
0000c0 b1 88 aa bd cc 27 a5 3d 41 e6 4d be 75 b3 d4 be
       -0.08326853 0.08064231 -0.20107366 -0.41543165
0000d0 02 87 9b be 19 e4 8b bb 0b 8a d5 3d 0e 8b 2e bd
       -0.3037644 -0.0042691347 0.1042672 -0.04261308
0000e0 8b fe 5a be e8 67 c4 be 1a c3 07 3f 0c 13 85 be
       -0.21386163 -0.38360524 0.53032076 -0.25991094
0000f0 67 4e b3 3d 2f 67 18 be 8b c4 58 3e 53 72 62 be
       0.087551884 -0.14883111 0.21168725 -0.22113924
000100 dd c2 49 3e 43 7f 36 bd aa e2 25 bf cd 55 23 3f
       0.1970324 -0.04455496 -0.64798987 0.63802797
000110 ed 19 59 3e 83 cc 82 be 9e 37 5a be 57 69 e2 3d
       0.21201296 -0.25546655 -0.21310279 0.11055248
000120 fa c8 1a 3e cd 28 93 3e bc 95 fb be 22 65 ed be
       0.15115729 0.28742066 -0.49137676 -0.4636622
000130 56 4d 47 3f 5d 31 74 bd fe a3 89 be 3b a7 63 3d
       0.7785238 -0.05961739 -0.2688293 0.055579405
000140 c0 69 6a bd 59 a8 92 3d ca 73 ff bd 7b bd 4e bc
       -0.057229757 0.07161016 -0.12473257 -0.012618418
000150 70 4f f4 bd a4 62 9c 3e b2 f7 99 3e 07 fa c4 bd
       -0.11929214 0.30544007 0.3007179 -0.096180014
000160 0d ef 07 bd fa 88 8f be f2 f3 31 bc 96 f6 11 bd
       -0.03318696 -0.28034192 -0.010861384 -0.035635553
000170 60 d8 c7 3d ab 5c 91 3d 45 38 29 3e fb a4 8e 3e
       0.09758067 0.07097753 0.16525371 0.27860245
000180 a5 2b 0b 3d 81 96 62 be 12 ef c1 be 5c 13 0c 3c
       0.03397717 -0.22127725 -0.3787771 0.0085495375
000190 37 53 0a be 19 f0 62 3d af f4 d9 3d 7c ce c4 3e
       -0.13508306 0.055404756 0.10642373 0.38438785
0001a0 93 81 a5 3e 68 a5 8d bd 35 b7 9f be 33 b8 b9 be
       0.3232542 -0.06916314 -0.31194463 -0.36273345
0001b0 11 26 52 bd 23 ac 80 be d0 e4 4b 3d 83 ca dc 3e
       -0.051305834 -0.2513133 0.04977876 0.43123254
0001c0 ec 12 a7 be 6f 68 f5 3c 93 d9 39 3e 4e b2 74 bc
       -0.32631624 0.029957024 0.18149404 -0.014935089
0001d0 64 41 16 3e 21 9b 56 3e 50 23 66 be 1b 1a ad 3d
       0.14673382 0.20957614 -0.22474408 0.08452245
0001e0 57 6f 43 3e d2 17 b1 be a3 4a 5f bd 5e 45 1c 3d
       0.19085442 -0.34588486 -0.05451454 0.03815209
0001f0 78 60 8e be 04 64 04 3e 64 54 b8 3e fa e2 42 be
       -0.27807975 0.12928778 0.36001885 -0.19031897
000200 ce c5 88 ba 72 49 13 3f 70 ce d6 be d1 b5 5f be
       -0.0010434927 0.57533944 -0.41954374 -0.21846701
000210 b6 e0 42 3e 6b 60 38 be 5c a6 87 bd da ad 2e be
       0.19031033 -0.1800553 -0.066235274 -0.17058507
000220 b1 cb d0 bd ce 4b e6 3e 2d 20 ad 3e 67 8b a7 3e
       -0.10195101 0.4497971 0.3381361 0.32723543
000230 79 e3 d9 3e d7 18 20 3d d6 d6 d2 3e e3 64 f0 be
       0.4255636 0.03908619 0.41179532 -0.4695197
000240 05 39 58 be 2f 0f 1a bf 20 71 7f 3e fd 6f d9 bd
       -0.21115501 -0.6017942 0.24945498 -0.10617063
000250 a2 95 bc be 30 7b ca 3d 5e 2c 2b be 1d 55 35 3e
       -0.3683291 0.098867774 -0.16716143 0.1770825
000260 9a 75 14 3e 98 18 07 3f 74 28 3a bd 66 6c a8 3d
       0.14497986 0.527719 -0.045448735 0.082238
000270 34 77 0c 3e 54 93 85 be 6a 6c 4e be d4 93 91 bd
       0.13717347 -0.26088965 -0.20158544 -0.07108274
000280 2a df ff bd 21 ef 1a be ed 68 42 3d ad be 8e be
       -0.12493737 -0.15130283 0.047463346 -0.2787985
000290 b8 70 a9 be 84 14 2e 3e a3 67 2e 3e a9 d3 b4 3e
       -0.3309381 0.17000014 0.17031722 0.35317734
0002a0 59 21 93 be 99 ad 15 3e e7 ff 3f 3d bc 21 4a 3d
       -0.2873638 0.14617004 0.046874907 0.049348578
0002b0 f4 67 c9 be 1b 12 d2 be 82 89 51 3e 3f 20 53 3e
       -0.39337122 -0.41029438 0.20462611 0.2061777
0002c0 08 1e be 3e 05 e7 95 be 45 a8 3e 3e 35 8d 2d 3d
       0.37132287 -0.29277816 0.18618877 0.042370994
0002d0 18 ad 9c bd c8 d7 f9 be 76 9c 0f bf 07 7c f2 3d
       -0.076502025 -0.4879744 -0.56098115 0.118400626
0002e0 82 20 87 3e 71 bb 9e 3e 1b ba b7 3d 8e d7 57 3e
       0.2639199 0.3100238 0.08971044 0.21078321
0002f0 ab 36 a7 3d de 1f 84 3d b2 1c 5f be 36 a6 38 3c
       0.08164724 0.06451391 -0.2178829 0.0112700965
000300 d7 9e 8a be 0a 46 d0 be 6f 24 49 3e 6d d8 1f 3e
       -0.2707431 -0.40678436 0.19642805 0.15609904
000310 bc 72 92 3e b1 bc 61 3e 11 bf af 3e 09 02 7a be
       0.2860316 0.22044636 0.3432546 -0.24414839
000320 3d 70 69 bd 6e ef 28 be 32 f5 d7 be 8a fb 3a 3e
       -0.056991804 -0.16497585 -0.42179257 0.18260017
000330 10 50 2e be 5d f2 a1 3e 53 e4 07 3d 86 db a2 3e
       -0.17022729 0.3163022 0.03317673 0.31808108
000340 26 71 20 be 7b 2f b4 3c ce 08 60 be 74 6c 2b be
       -0.15668163 0.021995297 -0.21878359 -0.1674059
000350 02 82 8d 3e 0d 4d 3f bd f3 8a 28 3e 37 15 c7 bd
       0.2763825 -0.04670434 0.16459255 -0.09720843
000360 47 89 80 bd 28 ad e9 bd c6 35 90 bd 89 38 11 3e
       -0.062761836 -0.1140998 -0.070415065 0.14181723
000370 4f 1f 7f 3e ff 40 cc bd 4b 3a e2 3e d1 ea 7c 3e
       0.24914287 -0.099733345 0.441851 0.2469895
000380 c2 09 50 3e 1b 8f 69 be 9c 3e 4f 3d db 6e e4 3c
       0.20316222 -0.22808497 0.05059682 0.027884891
000390 92 91 a7 be d0 28 8d be 0f a6 84 3c e8 7b 52 be
       -0.3272825 -0.275702 0.016192464 -0.20555079
0003a0 94 9f ad be e3 1d 8f be 97 6f 84 3e b5 94 a2 3e
       -0.3391081 -0.2795249 0.25866386 0.3175408
0003b0 1c 1f bc 3d 6b 8c b1 bc cd 81 75 bd 83 d2 f1 3d
       0.09185621 -0.021673402 -0.05993824 0.1180773
0003c0 0b 45 15 bd 67 1c 3e be 0e 10 81 3d 66 9f 81 be
       -0.036442798 -0.18565522 0.0630189 -0.25316924
0003d0 2b 18 bd 3e 7f 26 f4 3e d0 ab e2 be b3 ce ee bd
       0.369325 0.4768562 -0.44271708 -0.116605185
0003e0 06 97 2e 3f 99 b3 e7 be 3c 89 f4 bd cd 03 70 3e
       0.68199193 -0.4525421 -0.11940238 0.2343895
0003f0 49 89 81 3b ce c2 b5 3d c4 fc 87 be 20 80 78 3e
       0.0039531332 0.08875047 -0.26560032 0.24267626

c1.2.weight f4 [16]
000000 b8 a5 6b 3f c4 8c 6e 3f 97 fe 5c 3f 42 a9 79 3f
       0.9204974 0.9318354 0.86325973 0.9752389
000010 4d b9 87 3f c2 39 59 3f 1f 77 51 3f 84 5f 80 3f
       1.0603424 0.84853756 0.8182239 1.0029149
000020 38 b4 68 3f b0 04 70 3f d7 aa 2f 3f 72 fa 54 3f
       0.9089999 0.9375715 0.68620056 0.8319465
000030 1f 57 9b 3f aa 94 62 3f fe ea 6c 3f a1 01 19 3f
       1.2135962 0.88508093 0.9254607 0.5976811

c1.2.bias f4 [16]
000000 9e d4 26 bd 9b 57 fd 3d 87 ec 81 3e 87 05 fe 3c
       -0.04073011 0.12370225 0.2537577 0.031008495
000010 2e 6d fb 3c 06 be 11 be 4d d1 8b 3e 1a e1 8f be
       0.03069171 -0.14232644 0.2730812 -0.28101426
000020 f3 36 37 be d6 f6 fc bb e9 3b 8a bf 65 fe ab bd
       -0.17892055 -0.007719855 -1.0799533 -0.08398131
000030 29 ce c3 3e 78 d9 67 3e a1 6d 90 3e 33 5f 3b bf
       0.38243225 0.22641551 0.2820864 -0.7319214

c1.2.running_mean f4 [16]
000000 22 5a 6d 3e 2e 82 a6 3e 30 7e b9 3e d0 34 4a 3e
       0.23178914 0.32521194 0.36229086 0.19746709
000010 eb 29 84 3e 2e 95 58 3e 02 9b a1 3e 1a f5 62 3e
       0.2581323 0.21150658 0.31563574 0.22163811
000020 cb 49 43 3e 60 25 f5 3d d9 da d9 3f 08 b7 94 3e
       0.19071119 0.11970019 1.7019912 0.29045892
000030 c6 0b a4 3e 8a cc 81 3e 38 50 9a 3e 2c f3 86 3f
       0.32040232 0.25351363 0.30139327 1.054296

c1.2.running_var f4 [16]
000000 12 1b a4 3e e4 3f 92 3e fd ef a9 3e 0b 56 83 3e
       0.32051903 0.2856437 0.3319091 0.25651583
000010 a0 2f db 3e 2a 0d 0e 3e ad 44 0f 3f 6e 93 3f 3e
       0.42809772 0.13872209 0.55964166 0.18708584
000020 3e 46 a4 3d c7 1f 85 3d 37 93 77 40 80 00 f6 3e
       0.0802121 0.06500202 3.8683603 0.48047256
000030 ae e8 a4 3e ad d6 52 3e d6 ee 95 3e c0 2a 98 3f
       0.3220877 0.20589705 0.2928378 1.1888046

dwsep.0.weight f4 [16, 1, 3, 3]
000000 8e 6c 19 3d ae e5 0d be e9 4e 46 bd fe f0 45 be
       0.03745704 -0.13857147 -0.0484151 -0.19330212
000010 1d 19 51 bf c0 96 39 be 46 b0 01 be ce f2 98 bd
       -0.81678945 -0.18123913 -0.12664899 -0.07468186
000020 83 b5 9b 3e aa c2 44 3e 4c 30 32 bd 68 66 96 3c
       0.3041192 0.19214883 -0.04350309 0.018359378
000030 fa 11 a9 be 61 ed cc 3e f8 fa 8d 3e 1c 3c 2e bf
       -0.33021528 0.40024856 0.27730536 -0.6806047
000040 32 2e 3b 3e db 64 a4 3e 02 8f 98 bd 49 af 9a 3e
       0.18279341 0.32108197 -0.074491516 0.30211857
000050 dc 63 4a be 31 7f 5a be f2 2c ee bd a2 cd 1a 3f
       -0.19764656 -0.21337582 -0.116296664 0.6047002
000060 01 b1 70 3e 4b 53 10 bf 54 d5 95 3e c0 69 29 be
       0.23505022 -0.56377095 0.2926432 -0.16544247
000070 4a 0c 23 bf e9 e0 9a 3d b5 30 b9 be 19 8c 71 bf
       -0.63690627 0.075624295 -0.36169973 -0.943544
000080 8b 90 35 3e 90 87 3a bd c5 7f dc bd 03 d2 1a 3e
       0.1773092 -0.04553944 -0.107665576 0.15119176
000090 f7 a1 07 3d 76 73 66 be 90 d2 11 be 37 1c 87 bd
       0.033113446 -0.22504982 -0.1424048 -0.065971784
0000a0 80 43 08 3e 17 a9 7b 3f 74 c7 9b bd 5d 29 19 3e
       0.13306999 0.98304886 -0.07606402 0.14957185
0000b0 1d 38 cd 3e 9f d4 27 3e cf 18 e6 3e 21 e1 35 bc
       0.40081874 0.16389702 0.44940802 -0.011101038
0000c0 e9 fb 79 3e 16 2f e5 be 15 6f 01 be 2f 9d 9c 3e
       0.24412502 -0.44762486 -0.1264003 0.30588672
0000d0 7c f1 1b bf b7 24 01 be 18 5a 8e 3d 35 50 6c be
       -0.6091535 -0.12611662 0.06950778 -0.23077472
0000e0 5a 3b 3a 3e f5 41 22 be 51 de 3e be ee 92 93 3e
       0.18186703 -0.15845473 -0.18639494 0.28823036
0000f0 65 4f e4 be 87 90 45 bf e4 c7 f6 be 4b 6e a6 3e
       -0.44591823 -0.77173656 -0.4819938 0.32506022
000100 2d 93 a4 3c 52 4c 73 be fa 9e 9d bd 04 19 83 bf
       0.02008971 -0.23759583 -0.07696338 -1.0242009
000110 d1 d7 56 bd 6b 14 22 be 41 21 23 be 69 63 bd 3e
       -0.052451912 -0.15828101 -0.15930654 0.36989906
000120 81 2b dc 3d dd f4 fb be 0a e3 88 3d bc d6 8a 3e
       0.10750485 -0.49210253 0.06683929 0.27116954
000130 6d 76 0b bf 3e fb b9 be 04 c0 fc 3e 27 d4 fb bd
       -0.5447758 -0.36324495 0.49365246 -0.12296324
000140 c9 e4 64 bd 46 64 4e 3e 6b c5 6c 3e a0 b6 bb bd
       -0.05588225 0.20155439 0.23122184 -0.09165692
000150 46 56 e8 be bf 32 d3 3d 73 f1 b0 3e c7 07 d5 be
       -0.4537832 0.103124134 0.3455921 -0.41607496
000160 ac b2 ae be b1 38 b9 3e 1d 59 3f 3e c8 27 d7 3d
       -0.3412069 0.36176065 0.18686338 0.105056345
000170 34 09 82 be 9f 01 4e 3e 34 c1 8a 3e 24 cb 02 3f
       -0.25397646 0.20117806 0.27100527 0.5109122
000180 52 8c fb bd 33 0f 25 3e de 18 55 3e 78 ac 61 3d
       -0.12282623 0.1611908 0.20810267 0.05509612
000190 77 20 99 bd f2 94 a0 3e d8 d3 21 3d ff 67 bc 3e
       -0.07476895 0.31363636 0.03950867 0.36798093
0001a0 44 8b 35 3f 26 b3 e8 bd d6 2a 84 3c 0f 42 9c 3e
       0.7091563 -0.11362295 0.016133707 0.3051915
0001b0 27 4d 99 bd f2 3e ee 3e d6 ae 90 3e 2b 3f a9 3d
       -0.07485419 0.46532398 0.2825839 0.082640015
0001c0 62 93 82 be cc e4 a1 be 00 cb f7 3e bc 19 19 be
       -0.2550307 -0.3161987 0.48397064 -0.14951223
0001d0 b4 f5 35 bf 8e 7e 32 3d 94 a9 d0 bd db 41 1c be
       -0.7107804 0.043577723 -0.101885945 -0.15259497
0001e0 75 8b a2 3d 3f f7 ea 3e 98 52 00 be 09 59 13 bf
       0.079367556 0.4589176 -0.12531507 -0.5755773
0001f0 2b c5 cd 3e ee 28 d5 3e 25 ee 01 bc 14 05 14 bf
       0.4018949 0.4163279 -0.007930313 -0.5782025
000200 12 8f 53 bd 06 0a 2b be e0 3c e9 be 2a 93 6b be
       -0.051650114 -0.16703042 -0.45554256 -0.23005357
000210 96 fd 39 3e b4 92 aa 3e 9b 00 fa 3e f9 5a 43 3d
       0.18163142 0.3331505 0.48828587 0.04769418
000220 4a 83 f9 3e b2 c2 a0 3d d9 a2 b1 3c 60 a9 de 3e
       0.48732978 0.07849635 0.021684097 0.43488598
000230 b9 ce 51 bd 47 7d 8e 3e f2 d5 4f be 91 12 9f bd
       -0.051222537 0.27829954 -0.20296457 -0.07767213

dwsep.1.weight f4 [32, 16, 1, 1]
000000 e5 dd e4 3e da 92 9c 3e 8c 2f 94 3d fa 16 84 bc
       0.44700542 0.3058079 0.07235631 -0.016124237
000010 6b f5 3b bf c4 55 5e bd 18 73 4b 3f cf 17 fb 3e
       -0.73421353 -0.05428101 0.79472494 0.49041602
000020 99 5a 95 be 7e 9a 92 bc 8d 3c c3 3d e1 7a e3 3d
       -0.29170683 -0.017895933 0.095330335 0.11107422
000030 76 dc bc bd 1f 71 a2 bd 70 93 61 be eb 19 18 3d
       -0.09221737 -0.079317324 -0.22028899 0.037134092
000040 da ce c8 be 38 ae 6e 3e a6 aa 88 be a7 77 60 bc
       -0.39220315 0.23308647 -0.26692694 -0.013700402
000050 ed 8f 00 3e a7 76 93 be 78 ba d5 3e 65 e7 6c 3e
       0.12554903 -0.28801462 0.41743827 0.23135145
000060 a7 10 ff 3d 7f 72 c4 3e 33 bd 62 bd 75 85 ec 3b
       0.12454348 0.38368604 -0.055356216 0.0072180578
000070 ba 38 bf be bf ea 67 bd 32 07 15 bf 46 a2 0e 3c
       -0.37347966 -0.056620356 -0.58214104 0.008705681
000080 de 96 23 3e 0a b5 b1 3e ee 36 fe be 9c d8 de 3c
       0.1597552 0.34708434 -0.49651283 0.027202897
000090 56 17 65 3c 8e c5 9d 3d 99 6a a6 bd 8f d4 72 3d
       0.0139826145 0.07703696 -0.08125801 0.059284743
0000a0 15 2f 8e 3e 06 c4 e8 be 05 23 99 3d 69 95 b3 bd
       0.27770296 -0.45462054 0.074773826 -0.08768732
0000b0 99 25 97 bd 9a 02 3d bf 27 41 d7 3d e7 50 13 be
       -0.07380218 -0.73832095 0.10510474 -0.1438633
0000c0 17 9d 88 3e 79 2c 89 bd cb c6 11 3f 92 c3 c4 3e
       0.2668235 -0.066979356 0.5694396 0.38430458
0000d0 a8 8f 36 be 7e 7f 02 bf c3 43 b1 bd 31 10 27 3e
       -0.17828238 -0.5097579 -0.08655503 0.1631477
0000e0 7f ff 53 be f0 4a cb 3e c7 7a 29 3e a1 57 fe bd
       -0.20702933 0.3970561 0.16550742 -0.12419058
0000f0 0b 46 81 be fa d8 31 3e fb 1e 20 be 17 3c b3 be
       -0.2524875 0.17367926 -0.15636818 -0.35006782
000100 07 c3 54 3f 89 b9 05 3f 41 14 02 be fe 58 fa 3e
       0.8311009 0.5223623 -0.12703039 0.4889602
000110 31 0a c4 3d fe 91 52 be a3 42 67 3d bb 01 18 be
       0.09572256 -0.20563504 0.056460034 -0.1484441
000120 ec 94 c4 bd c8 60 25 bd f0 4c 3b 3d 59 af 67 bd
       -0.09598717 -0.0403755 0.04572767 -0.05656371
000130 04 df d8 3d fb 8e f5 bd be 68 05 be df 9b 2a be
       0.10589412 -0.11990162 -0.13028237 -0.16661023
000140 44 7c b8 be 8f 79 01 be e8 5f bb 3e 71 0f a8 3d
       -0.36032307 -0.12644027 0.36596608 0.0820607
000150 d1 f8 07 bf e0 ee bd bd e4 16 15 bd ab 3f d6 bd
       -0.5311404 -0.092740774 -0.036398783 -0.104613625
000160 df e0 95 3d 34 39 72 3e c2 ba 94 3e 4f 8a 27 3e
       0.073182814 0.23654634 0.29048735 0.16361354
000170 ce 77 62 be a2 7f 22 bf 6d 26 31 3e 9d 68 90 be
       -0.22116014 -0.63476 0.17299815 -0.28204814
000180 1f b2 a9 3d 15 f2 a0 bd 1d 75 40 bf 86 45 67 3e
       0.08285927 -0.078586735 -0.751787 0.22585115
000190 69 71 65 bc 7f ac 89 bc 62 6a 09 be f2 64 a6 bc
       -0.01400409 -0.016805885 -0.13419488 -0.020311806
0001a0 c0 40 53 3e 37 fc de 3e f0 42 48 3d c9 9f 68 bf
       0.20630169 0.435518 0.04889196 -0.9086881
0001b0 4a 77 0d be 4e c4 af 3e c7 8c 99 bd 06 2a 15 bd
       -0.13815036 0.34329456 -0.07497554 -0.03641703
0001c0 6b 9b 8a bd bd f0 67 3b c1 12 50 bd 38 ae 33 3f
       -0.06767925 0.0035391294 -0.050799135 0.7018771
0001d0 a8 3c b2 3d 82 1c f0 3d b4 78 96 3d 5f 68 31 3f
       0.087029755 0.117241874 0.07347241 0.6929988
0001e0 12 b7 89 bd 61 e3 98 bd 69 36 72 be 89 55 3b be
       -0.06724371 -0.07465244 -0.23653568 -0.18294348
0001f0 cd df 0f bd f9 ad c8 bd 52 21 ea ba 7f 26 21 be
       -0.035125542 -0.09798808 -0.0017862713 -0.15737341
000200 3b b5 a0 be 16 26 e2 be 68 e9 ec 3e e2 2d 9b 3e
       -0.31388268 -0.44169682 0.46271825 0.30308443
000210 53 18 66 be 36 82 0d bf e2 79 e6 3e 41 44 61 3e
       -0.22470216 -0.5527681 0.45014864 0.21998693
000220 27 9d bd bd c0 9b 9a 3d 12 09 2b be c3 6f 33 be
       -0.0925849 0.07549238 -0.16702679 -0.17523102
000230 68 5a 4b 3e 37 9b 6f 3e e5 49 aa 3c fc 22 00 3e
       0.19858706 0.23399054 0.020787189 0.12513345
000240 a5 52 20 3d 0d 74 25 be c4 9d 55 3e 4f 16 82 bd
       0.039141316 -0.16157551 0.20860964 -0.06351911
000250 1f de ee 3d 01 07 a1 be c0 25 15 3e 53 70 76 3f
       0.1166346 -0.31450656 0.14565182 0.96265143
000260 a3 bc 37 3e 23 86 de bd 80 9a 57 3e 00 f7 af 3d
       0.17943053 -0.10865428 0.21055031 0.085920334
000270 4e 5d 10 3e 73 7d ab bd 42 f2 b9 3d 59 33 31 3d
       0.14098093 -0.08373537 0.0907941 0.04326186
000280 33 0a ee 3d eb 38 29 bf d5 a4 90 bc bd 8f e3 3d
       0.11623039 -0.66102475 -0.017656723 0.111114
000290 57 3e b0 bc 9b 3b d1 ba 99 95 05 be 12 ac 09 3e
       -0.021514101 -0.0015963198 -0.13045348 0.13444546
0002a0 9b 7b fa be 96 46 93 bc a1 68 d3 3d a9 4a 34 3d
       -0.48922428 -0.017977994 0.10322691 0.044016514
0002b0 66 da bc 3e 51 26 65 3e b7 5b 4b 3e 95 d8 4f 3e
       0.36885375 0.22377898 0.19859205 0.20297463
0002c0 18 62 80 3d a2 72 44 be eb 9d 03 be 81 35 85 be
       0.0626871 -0.19184354 -0.1285321 -0.26017383
0002d0 81 37 92 be d6 80 ec be ac 54 fc bd d0 12 6f bc
       -0.2855797 -0.46192044 -0.123208374 -0.014591888
0002e0 46 5a 3a be 48 04 46 3d 72 18 78 be fd b0 dd 3d
       -0.18198499 0.048343927 -0.24228075 0.108247735
0002f0 8a 45 d7 3e 3a d9 a1 bd 52 d2 4f 3f 73 62 05 be
       0.42045242 -0.07902761 0.811803 -0.13025837
000300 b5 25 24 3e 20 00 1f 3f 04 20 f8 bd 10 48 3d be
       0.16030009 0.62109566 -0.121154815 -0.18484521
000310 c5 67 a5 3e 2d 21 17 be 03 06 72 3e 89 06 05 be
       0.32305732 -0.1475875 0.23635106 -0.12990774
000320 05 38 c8 be 75 cd b6 bd 53 b8 52 3e e7 44 6d 3e
       -0.3910524 -0.089259066 0.20578127 0.23170815
000330 3f 84 b4 3e 58 ba 2d be 1a e2 7f be 3d 09 e8 3e
       0.35257146 -0.16965616 -0.24988595 0.45319548
000340 60 14 78 bd a7 2f c7 be e3 dc 23 3f e3 93 25 3e
       -0.060566306 -0.38903543 0.6400892 0.16169696
000350 e2 9c 11 3e 20 1e 59 3e 52 67 26 3f 55 18 5f bd
       0.14220002 0.21202898 0.65001404 -0.054466564
000360 c1 f5 10 3e bf f7 a4 3e 52 23 3d be cb e2 a4 3e
       0.14156248 0.32220265 -0.18470505 0.3220428
000370 06 4c 39 3e bd 01 5c 3d c2 35 c0 bd 8e da 30 be
       0.18095407 0.053712595 -0.093852535 -0.17270872
000380 a0 36 33 be 51 e8 69 3d 92 7a 08 3e 8c 3c 9d 3f
       -0.17501307 0.05710632 0.13328007 1.2284102
000390 1e af f2 bd 27 79 0b 3e 4f 5d 94 3b d7 dd ed bd
       -0.11849807 0.13620435 0.004527725 -0.11614578
0003a0 18 12 37 3d 15 a0 97 bd 8e e6 28 be 94 eb c2 3c
       0.04469499 -0.0740358 -0.164942 0.023793973
0003b0 ae b2 f4 3c 24 00 ce bd 73 f8 a3 bc 64 af 15 3e
       0.029870357 -0.100586206 -0.02001593 0.14617687
0003c0 ce 0f 2c 3e 4e 1e aa be ea 89 f7 3e 8c 5b 40 3d
       0.16802904 -0.33226246 0.48347408 0.046962306
0003d0 41 17 21 3e 8e b0 54 bd 98 73 1f 3e b9 46 39 3d
       0.15731527 -0.05192619 0.1557144 0.045233462
0003e0 9c b6 98 be 89 30 88 bf a1 c2 da bb 38 f9 24 3d
       -0.2982682 -1.0639812 -0.0066760336 0.040276736
0003f0 57 65 d5 3d 86 91 04 be 65 aa 32 3d c9 9c 2b be
       0.1041972 -0.12946138 0.043619532 -0.16759028

dwsep.3.weight f4 [32]
000000 c2 8f 6f 3f e5 21 38 3f 39 25 77 3f 3e b8 49 3f
       0.9357873 0.7192672 0.9654117 0.78796756
000010 e1 63 53 3f 5c 7e 49 3f 4f 47 58 3f a7 f1 43 3f
       0.8257428 0.78708434 0.8448381 0.7654061
000020 88 31 3e 3f 69 a0 27 3f 5a 29 30 3f 42 7a 26 3f
       0.7429433 0.6547914 0.688131 0.650303
000030 cb af 2f 3f c0 da 4c 3f 63 0e 37 3f 6b 0a 6b 3f
       0.68627614 0.80021286 0.7150633 0.9181277
000040 e4 fa 39 3f 7e 59 0f 3f ba 22 56 3f a0 c0 50 3f
       0.72648454 0.5599593 0.8364674 0.8154392
000050 c7 c1 5a 3f f2 ea 55 3f 0e 09 49 3f d0 98 3f 3f
       0.8545193 0.83561623 0.7852944 0.7484255
000060 ed 85 59 3f f8 05 5b 3f 1d 6f 1a 3f 46 a9 23 3f
       0.8496998 0.8555598 0.60325795 0.63930166
000070 db 6a 4a 3f 66 08 8f 3f 80 df a8 3f eb 55 61 3f
       0.790693 1.1174438 1.3193207 0.88021725

dwsep.3.bias f4 [32]
000000 80 28 36 3e 12 da 21 3e 39 f0 87 3c fd 84 64 3c
       0.17788887 0.15805843 0.01659404 0.0139477225
000010 bd be c8 3e b9 06 91 3e 7d f2 32 3c b7 b8 73 3e
       0.39208022 0.2832544 0.0109220715 0.23800932
000020 8b 77 01 3f 5e 2d e8 3a 4e 98 bc bc f9 92 90 3e
       0.50573033 0.0017713716 -0.023021843 0.2823713
000030 70 0b b3 3e 24 de 8e 3e 8c 23 7b be 96 f9 20 3e
       0.34969664 0.27903855 -0.24525279 0.1572021
000040 4f 06 02 3d e0 b1 d5 3e 5f ce 1c be 03 6a e4 3e
       0.031744298 0.4173727 -0.153131 0.4461213
000050 16 ed a7 bc 93 70 b6 3e d4 d3 44 3e 00 3d 83 be
       -0.020498794 0.35632762 0.19221431 -0.25632477
000060 b6 88 06 3e 73 99 07 3f 12 be 16 3e a0 bf 3f be
       0.13138089 0.5296852 0.14720944 -0.18725443
000070 46 fd 7a 3e df bd 35 3f d5 23 eb 3e 9c f1 e9 3d
       0.24510679 0.70992845 0.45925775 0.114230365

dwsep.3.running_mean f4 [32]
000000 4a 35 d4 3e 17 3d cf 3e 8f c8 c3 3e 48 85 f4 3e
       0.41446906 0.40476295 0.38238952 0.47757936
000010 e9 e5 ed 3e 4e 37 40 3e 8e e4 14 3f 6b 4c 64 3f
       0.4646447 0.18771097 0.58161247 0.89179105
000020 6f ed c5 3e b0 4f 97 3e c2 22 5e 3e 5d ae e1 3e
       0.3865771 0.29552984 0.21692947 0.4407834
000030 d9 f5 dc 3d f9 b6 c6 3e 49 31 08 3f b5 06 92 3e
       0.10789079 0.38811472 0.53200203 0.28520742
000040 fa 6c 35 3f 3e 23 f4 3d 53 17 18 3f d4 62 bb 3e
       0.7086941 0.119207844 0.5941059 0.36598837
000050 31 09 ee 3e c8 37 22 3f a3 56 c1 3e 5a 25 e5 3e
       0.46491387 0.63366365 0.3776141 0.4475506
000060 35 57 22 3f 05 c3 dd 3e 12 d3 84 3e 65 da ac 3e
       0.6341432 0.4331285 0.25942284 0.33760372
000070 1b a4 af 3e 5e e9 b5 3d 49 cd f5 3c e7 71 46 3f
       0.3430489 0.08882402 0.030005114 0.7751755

dwsep.3.running_var f4 [32]
000000 15 75 4b 3e 91 81 b1 3e 02 d1 c7 3e 55 a9 80 3e
       0.19868882 0.34669164 0.39026648 0.2512919
000010 b3 27 6b 3e 2e 65 86 3e b2 f6 9f 3e 16 f1 d4 3e
       0.22964363 0.2624907 0.312429 0.41590184
000020 1b 29 b7 3e 93 d8 0e 3e b2 e3 5e 3e 5d fe b0 3e
       0.35773548 0.13949804 0.21766546 0.34569064
000030 19 ce 1c 3e dc f2 fe 3e f1 a4 3f 3e 8c 65 dd 3e
       0.15312995 0.49794662 0.18715264 0.43241537
000040 f5 02 aa 3e 67 b3 74 3d 22 a1 6f 3e af 8d 1e 3e
       0.3320538 0.059741404 0.23401311 0.15483736
000050 d1 cb 41 3e c0 74 b4 3e 11 7f 47 3e 93 be 82 3e
       0.18925406 0.35245323 0.19482066 0.25536022
000060 31 cc af 3e 58 e6 e9 3e f8 93 07 3e cb 00 26 3e
       0.34335473 0.4568355 0.1324004 0.1621124
000070 52 86 8f 3e df 1a 09 3e af cc 04 3c d7 4e b1 3e
       0.28032166 0.13389157 0.008105441 0.34630463

c2.0.weight f4 [64, 32, 3, 3]
000000 bc 7b 35 3d 15 67 14 3c d9 0f b3 bc bf b1 8b be
       0.044307455 0.00905778 -0.021858143 -0.27284047
000010 67 a0 f9 be 8a 14 c9 3e 9c c4 23 be 69 c7 7a 3e
       -0.4875519 0.39273483 -0.1599297 0.24490131
000020 3a f5 31 3d de e2 10 be ce c6 35 3e a8 33 b2 bc
       0.043446757 -0.14149043 0.17751619 -0.021753147
000030 50 3b c5 3e 4c 84 56 bd d5 4d f8 bc 92 0a bc bc
       0.38521814 -0.052372262 -0.03031055 -0.022954259
000040 49 37 d1 bb 59 34 86 bb ac 84 f8 bd c3 76 a5 bd
       -0.0063847643 -0.004095596 -0.1213468 -0.080792926
000050 e2 de 29 bd c8 46 bd 3d 92 90 04 be 24 12 a2 3c
       -0.041472323 0.09242016 -0.12945774 0.01978404
000060 dd 2b be bc 4a 99 19 3d 46 77 3d be a5 c8 76 3d
       -0.023214275 0.037499703 -0.1850253 0.060249943
000070 60 66 80 bb d4 05 07 be 80 a0 43 bd 1d 23 0d bd
       -0.003918454 -0.13185817 -0.047760487 -0.034457315
000080 52 fc 3c 3e a0 a6 78 bd 6e 30 30 3d 1d 5f 50 bd
       0.18455628 -0.06070578 0.043014936 -0.050871957
000090 c5 de a1 3e 66 cc 68 be 76 d3 60 be fb 10 cc be
       0.31615272 -0.22734222 -0.21955666 -0.39856705
0000a0 7b 6b 4b 3e 34 f0 74 3e 97 5e 18 3e 57 8a 24 bc
       0.1986522 0.23919755 0.14879833 -0.010042748
0000b0 2c af 92 3b e3 17 22 3e e5 c8 35 be 2b a7 2e be
       0.0044764485 0.15829425 -0.17752416 -0.17055957
0000c0 9d 1b fe bd df 06 29 3e cc e4 44 bd 55 f2 c3 bd
       -0.124076106 0.16506527 -0.04806976 -0.095677055
0000d0 fe e2 aa bc c0 89 5d 3d 8e 12 60 bc cf 1f 43 3e
       -0.020860191 0.054086447 -0.013676299 0.19055103
0000e0 06 84 7c 3c 26 26 2c 3c 36 5c 90 bd 70 80 a9 3d
       0.015412336 0.010507142 -0.07048838 0.08276451
0000f0 e7 d6 10 bc 54 30 bf bd 1c ae 96 3c bf f3 9d bd
       -0.008840299 -0.0933539 0.018393569 -0.077125065
000100 b3 58 fc bd ae 1d d2 bc 69 54 d3 3c 3b 02 a4 be
       -0.123216055 -0.025648918 0.025797086 -0.32032952
000110 c9 0f 74 bd 10 87 5d be 5d ab cb 3d 82 44 a9 3d
       -0.059585366 -0.21633554 0.09944794 0.0826502
000120 49 db dd 3d 53 31 11 be b3 c2 a0 3d 47 24 74 be
       0.10832841 -0.14178972 0.07849636 -0.23841964
000130 8a eb e9 3a e3 75 59 3d b0 03 a6 3d 82 0a 30 bd
       0.0017846685 0.05309094 0.08106172 -0.04297877
000140 fa 08 bd 3d 80 a6 2f be 1e 29 97 3d 48 5a ea 3d
       0.09230228 -0.17153358 0.07380889 0.11443001
000150 2d c4 8c 3e df 71 78 be a9 49 aa bc 2d 49 82 bc
       0.2749342 -0.24262188 -0.020787077 -0.015904034
000160 47 92 a6 3e 26 54 a1 bd 9b 7d 11 be a5 37 aa 3d
       0.32533476 -0.07877378 -0.14208071 0.083113946
000170 0c f9 0f bd 57 cd 85 3d 4c e1 fa bd 3e f3 7f 3c
       -0.03514962 0.06533306 -0.12250003 0.015621958
000180 8b 5f 24 be 17 00 f6 3d da d1 29 be 02 0c 2b 3e
       -0.16052072 0.12011736 -0.16583958 0.167038
000190 4f d7 d1 bd 47 72 9a bd d6 19 b0 bd 5b fc 8d 3d
       -0.10246145 -0.07541328 -0.08598678 0.069328986
0001a0 ba 5d b9 3c f8 5c 06 3e 3c 08 dc bd 0c f9 01 be
       0.0226277 0.13121402 -0.10743758 -0.1269266
0001b0 f0 99 3e 3d 81 a4 91 3c 57 da ee 3d ad c0 0c 3d
       0.046533525 0.017778637 0.11662739 0.034363437
0001c0 15 c2 82 3d 8b 44 a5 3c d3 e5 bc 3d b3 08 55 3d
       0.063846745 0.020174285 0.09223523 0.05201025
0001d0 ff 01 03 3e e9 f8 2d 3d 2d a8 49 3d 2b 8e a4 3c
       0.1279373 0.042473707 0.04923265 0.020087322
0001e0 96 54 e3 3d 06 ca 5f be ce 89 32 be f8 1b e2 bb
       0.11100118 -0.2185441 -0.17435381 -0.006900307
0001f0 6f 54 f7 bd aa 62 81 bd 73 b3 f5 3e f5 8d 5e be
       -0.12076651 -0.06317647 0.4798847 -0.2173384
000200 d8 ee f2 bd fb 5f 1f bf 15 06 bf 3e 61 a6 26 3e
       -0.11861962 -0.6225583 0.37309328 0.16274406
000210 8d 13 1b 3d 4c 39 2a be 0d be 68 bd bb fd 7d bd
       0.037860442 -0.1662342 -0.05682187 -0.062009554
000220 6f a1 84 3d 2b 8e c6 3c 12 ae ec bc d0 ac 0d be
       0.064761035 0.024237713 -0.028891597 -0.13835454
000230 e0 19 9b 3c 11 3f 3c bd 7f 8f 1a bd b2 03 ab bd
       0.018933237 -0.045958582 -0.037734505 -0.08350314
000240 d6 d0 ad 3d 93 59 ab 3d d4 ca 32 3d 6c 90 c2 bc
       0.08487098 0.08366694 0.043650463 -0.023750506
000250 d9 ef 39 bd 8d 00 ae 3d 3f 1b a2 3b 92 16 07 bc
       -0.045394752 0.08496199 0.0049470956 -0.008245127
000260 07 4a b2 bc 1e 7a 3d 3e dd 3e 3c be 35 37 a5 bd
       -0.021763815 0.18503615 -0.18383355 -0.080671705
000270 b3 5d 0f be 99 f8 fa bd 1f db 75 be e8 42 b7 3b
       -0.14000587 -0.122544475 -0.2400937 0.0055926926
000280 e3 c4 b0 bd 6c e2 28 bd 87 dc 72 3e 85 c2 e5 be
       -0.08631303 -0.041231558 0.23716937 -0.4487497
000290 a0 ed 34 be 9e 5c ed be f5 bb 0c 3f 7e 71 8f 3e
       -0.17668772 -0.46359724 0.549743 0.28016275
0002a0 44 fe 9f 3e 52 42 fe bd 14 63 17 bd 2a de 98 3e
       0.31248677 -0.12414993 -0.036959723 0.29856998
0002b0 ce 86 48 bd e8 03 36 be 15 7d 90 be d3 2c 8c be
       -0.048956685 -0.17774928 -0.2822043 -0.27377948
0002c0 14 64 81 3e d9 d3 23 3c cc 78 64 3e e5 f7 9a bd
       0.25271666 0.009999239 0.22311705 -0.075668134
0002d0 2f 54 94 be e7 d7 a8 3e f4 37 18 3d 21 69 09 3f
       -0.28970477 0.3297722 0.037162736 0.5367604
0002e0 15 33 00 bf 75 56 0c be 32 71 a2 be ee b8 25 3e
       -0.50077945 -0.13704856 -0.31726986 0.16183826
0002f0 5d 46 68 3b bb 77 c8 bd 4c f6 f0 bd e0 78 54 be
       0.003544233 -0.09788462 -0.117657274 -0.20749235
000300 2a 43 b3 3e f3 05 1b bf b8 8f 07 3e 15 22 bc be
       0.3501218 -0.6055595 0.13238418 -0.36744753
000310 ba 1a 90 3e 11 e3 ad bd c0 16 6b 3c cf fc ce 3d
       0.2814539 -0.08490575 0.014348686 0.10106813
000320 c2 ce 04 bd df 3c c8 3d d2 19 a4 be aa 93 a7 3d
       -0.032423742 0.09777235 -0.3205095 0.081824616
000330 1b ee b1 bd 4b c6 2d 3d d9 3d 53 bb 0f eb 14 be
       -0.08687993 0.042425435 -0.003223291 -0.14542793
000340 ef a5 42 3e 8d e9 03 3e f0 60 1a 3e 27 43 f2 3c
       0.19008611 0.12882061 0.15076041 0.029573036
000350 d3 cb 23 bd 02 8e 11 be 70 d6 6b 3e a2 81 2d bc
       -0.039989304 -0.14214328 0.2303102 -0.010589989
000360 31 18 2b 3e d0 70 7b be 05 e9 83 bc bf ff 93 be
       0.16708447 -0.24554753 -0.016102323 -0.28906056
000370 78 b3 a0 bc eb 5e 05 3e b5 b6 65 3d bf 9f ef 3d
       -0.019616827 0.1302449 0.056082446 0.11700391
000380 6a d5 03 be bd a1 c2 3d 56 d2 a6 3a c8 aa 80 bd
       -0.1287438 0.095035054 0.001272748 -0.06282574
000390 1c 0e 4d bc 21 95 fc 3c d2 c3 69 bb e6 a1 c9 3d
       -0.012515571 0.030832829 -0.0035669697 0.09845333
0003a0 05 b3 11 3d 7b 75 fb 3b 55 83 18 bd 03 20 01 3e
       0.035571117 0.007673917 -0.037234623 0.12609868
0003b0 6e 5b bb 3c 55 f3 5b 3e e5 45 2e 3e 73 eb 0c be
       0.022870746 0.21479543 0.1701885 -0.13761692
0003c0 e5 ba f9 3d dc d4 7e bd 1a 67 7e bd d2 89 9d bb
       0.121938504 -0.062214717 -0.062110044 -0.004807689
0003d0 3a 45 06 3e d1 0d cf 3d 2c 5f 24 3e 07 d2 ab bd
       0.13112345 0.10110057 0.1605193 -0.08389669
0003e0 4a 08 1f bd 14 b2 03 bd f5 89 9f bc ad cc 38 be
       -0.038826264 -0.03215225 -0.019474963 -0.18046828
0003f0 0e 7a 9f 3d 44 c5 73 3d 50 43 20 be 35 6c c0 bd
       0.07786952 0.0595143 -0.15650678 -0.09395639

c2.2.weight f4 [64]
000000 6c 39 8a 3f f5 40 6a 3f 6d c3 39 3f 09 b2 47 3f
       1.0798774 0.91505367 0.7256382 0.78006035
000010 89 ec 35 3f 3d 21 29 3f 9d e0 07 3f 58 1a 18 3f
       0.7106405 0.6606634 0.5307711 0.594152
000020 2e e5 3d 3f 75 88 67 3f 2a 45 77 3f 44 a3 23 3f
       0.74177825 0.9044259 0.9658991 0.63921
000030 11 b1 23 3f df b9 6b 3f 5e 4a 2d 3f e7 88 4e 3f
       0.63942057 0.9208049 0.676916 0.80677646
000040 ff 66 65 3f 61 c7 1a 3f 5c 02 86 3f db 97 44 3f
       0.89610285 0.6046048 1.046947 0.76794213
000050 33 9c 53 3f 52 19 4b 3f 54 32 48 3f 86 d6 36 3f
       0.82660216 0.7933551 0.78201795 0.71421087
000060 13 1a 36 3f 61 da 56 3f b7 c3 66 3f bf 76 bf 3e
       0.71133536 0.8392697 0.9014239 0.37395284
000070 fe 32 3a 3f cd f5 2a 3f 21 41 f4 3e 00 e6 27 3f
       0.7273406 0.6678131 0.4770594 0.6558533
000080 88 a9 57 3f b6 2d 23 3f a4 59 37 3f 20 54 13 3f
       0.8424306 0.63741624 0.71621156 0.5755024
000090 2c 1f 87 3f f4 98 3a 3f 20 48 3d 3f 5c 17 35 3f
       1.0556388 0.7288964 0.7393818 0.7073877
0000a0 4f 25 3b 3f 9d 06 3d 3f 99 73 3a 3f 10 06 33 3f
       0.73103803 0.73838216 0.7283264 0.69931126
0000b0 aa 20 46 3f 76 2e 47 3f 1a 91 61 3f b1 53 6b 3f
       0.7739359 0.7780527 0.8811203 0.9192458
0000c0 63 f1 38 3f 06 79 35 3f 6e b0 36 3f b2 38 47 3f
       0.72243327 0.7088779 0.7136296 0.77820885
0000d0 67 14 4c 3f 13 af 40 3f fc d0 27 3f d9 65 47 3f
       0.7971863 0.7526714 0.6555326 0.7788978
0000e0 9e a8 43 3f 48 ed 5c 3f 95 a3 20 3f 84 4e 86 3f
       0.76429164 0.8629956 0.62749606 1.0492711
0000f0 d3 05 19 3f 12 a4 27 3f a0 e7 13 3f 2c 4b 8a 3f
       0.5977451 0.65484726 0.57775307 1.0804191

c2.2.bias f4 [64]
000000 cd c7 e0 3d af f0 d3 3e 54 8e 24 3e eb 9e 52 3e
       0.10975609 0.41394565 0.16069919 0.20568435
000010 8d 47 b1 3d 0d 8e 24 3e f8 a3 c3 3e 3f 26 70 3e
       0.08656225 0.16069813 0.38211036 0.2345209
000020 29 c2 9a 3d 79 a2 64 3d b8 6a 89 3e 60 83 17 3e
       0.07556564 0.05581901 0.26839232 0.1479621
000030 67 c8 a7 3e 52 05 92 3e e5 22 6d 3e 30 2c 7f 3e
       0.32770082 0.28519684 0.23157842 0.249192
000040 f1 d9 17 3e 12 91 21 3e 03 ee 8c 3e 54 19 aa 3e
       0.14829232 0.15777996 0.2752534 0.3322245
000050 5c 45 d7 3d 63 e8 82 3e 97 6c 95 3e 1a 2c af bd
       0.10511276 0.25567922 0.2918441 -0.085533336
000060 54 c0 cb 3d 61 be b8 3e 85 a6 55 3e 6c 45 0b 3f
       0.09948793 0.36082748 0.20864303 0.54402804
000070 19 42 54 3e c0 8f ae 3e 7c d9 ce 3e b9 04 39 bd
       0.20728339 0.34094048 0.40400302 -0.04517052
000080 19 d2 55 3e 3b c1 9e 3e 50 4f 90 3d 66 ea 9e 3d
       0.20880927 0.31006798 0.07046378 0.07759552
000090 ac 93 65 3e c8 82 86 3e 95 13 01 3e bd cc 9e 3d
       0.22419614 0.26271653 0.12605126 0.077538945
0000a0 f0 b4 09 3e a4 ff 5e 3e c1 e3 fc 3c 6d 10 c5 3c
       0.13447928 0.21777207 0.03087032 0.024055684
0000b0 f8 f9 6d 3e 40 fd a6 3d ff d7 a2 3e 46 38 41 3e
       0.23239887 0.08153772 0.31805417 0.18869123
0000c0 ee 1f 29 3e 66 7b a1 3d 61 00 86 3e fb f6 bb 3d
       0.16516086 0.078848645 0.26172164 0.09177967
0000d0 5f 0b 38 3e 33 e1 3c 3e 76 95 bb 3e a0 7c cc 3d
       0.17973088 0.18445282 0.36637467 0.09984708
0000e0 b3 61 2f 3e 79 e2 8b 3e 5a 72 81 3e e1 84 70 3e
       0.17127113 0.27321222 0.25282556 0.2348819
0000f0 06 94 15 3e a8 5c ed 3c 54 a3 87 3e 98 ef 79 3e
       0.14607248 0.028974846 0.26491797 0.24407804

c2.2.running_mean f4 [64]
000000 75 94 1f 3f bc 25 04 3f 48 a3 0c 3e aa 29 48 3e
       0.623359 0.5162008 0.13734162 0.19547144
000010 48 99 62 3d 5b ce 31 3e 7c b1 60 3f b4 36 64 3e
       0.05532196 0.17363875 0.8777082 0.22286493
000020 d0 5f 3b 3e ec b0 89 3e 2d f4 ee 3e 69 b6 98 3e
       0.18298268 0.26892793 0.46670666 0.29826668
000030 53 68 6b 3e d6 86 9d 3e a1 0c 29 3e 2a 68 64 3e
       0.22989015 0.30766934 0.16508724 0.2230536
000040 6e 89 76 3e c8 10 02 3f 3f e4 34 3f 9d 63 1b 3e
       0.24075863 0.50806856 0.70660776 0.15174718
000050 c8 84 51 3e d7 d0 0f 3e a2 aa c5 3e a3 90 64 3f
       0.20460808 0.1404451 0.38606745 0.892832
000060 7c f2 5e 3e fe ab 02 3f 8b 15 c4 3e ac 0b 0d 32
       0.21772188 0.5104369 0.38297686 8.209934e-09
000070 1b e7 88 3e b9 db 8d 3e a8 1b 7d 3e fc cb a5 3e
       0.2673882 0.27706698 0.24717581 0.3238219
000080 9c 71 90 3e a1 d7 75 3e 0f 8b 94 3e f7 d8 84 3e
       0.28211677 0.24008037 0.29012343 0.2594678
000090 c6 3b d8 3e fd f5 c2 3e 5e af 74 3e c4 6d 8d 3e
       0.42233104 0.380783 0.23895022 0.27622807
0000a0 c5 0d 1d 3e 41 30 65 3e 07 1f b9 3e 38 52 4d 3e
       0.15337284 0.22381689 0.36156484 0.20050895
0000b0 0b dc 8f 3e 6d 87 bd 3e b4 52 f1 3e d0 98 a6 3e
       0.28097567 0.37017384 0.4713341 0.32538462
0000c0 01 f5 66 3e 83 26 a7 3e 0f fc d4 3d 53 58 13 3e
       0.22554399 0.3264657 0.10399639 0.14389162
0000d0 ee 53 7a 3e 57 16 7a 3e 81 36 5a 3f b7 1e 51 3e
       0.24446079 0.24422584 0.85239416 0.20421873
0000e0 67 ed 91 3e ba 95 8f 3e 88 12 d5 3e 6f e4 9b 3e
       0.28501436 0.2804392 0.416157 0.30447719
0000f0 f2 7e 38 3f 4a 88 03 3f 7d 03 a0 3e 30 8b d5 3e
       0.72068703 0.51379836 0.3125266 0.41707754

c2.2.running_var f4 [64]
000000 6e fa 0b 40 bc fe fa 3f 82 86 91 3e db e5 ec 3e
       2.18716 1.9608989 0.28422934 0.46269116
000010 c1 58 d1 3d 3f 8a bd 3e ed b4 fe 3f 55 b2 c1 3e
       0.102220066 0.37019536 1.9898964 0.3783137
000020 bb 4c de 3e 64 6a 3a 3f d9 03 a1 3f be b7 22 3f
       0.43417916 0.7281859 1.2579299 0.6356162
000030 b1 00 03 3f 6f 8c 77 3f e1 13 b2 3e d3 c3 fc 3e
       0.5117293 0.9669866 0.3478079 0.49368152
000040 5e 1c 12 3f f6 b7 8d 3f 36 f5 20 40 0c 49 93 3e
       0.57074535 1.1071765 2.5149665 0.28766668
000050 73 ef 17 3f 3c 20 cb 3e 6b a3 8b 3f 72 0b 1b 40
       0.59349746 0.3967303 1.0909246 2.4225736
000060 2a 16 da 3e 09 b2 c9 3f 2e e8 80 3f 88 21 fd 2f
       0.42595035 1.5757457 1.0070856 4.6044257e-10
000070 6b 07 ef 3e 60 11 16 3f 17 05 b5 3e 22 c3 2c 3f
       0.46685347 0.5862026 0.35355446 0.6748525
000080 1b 9e 31 3f 4e a3 e4 3e ce ed 11 3f 5d b5 00 3f
       0.69381875 0.44655842 0.57003486 0.5027674
000090 3d 6e ad 3f d1 57 58 3f 7a 97 f7 3e b6 d3 1f 3f
       1.3549267 0.84509 0.48357755 0.6243242
0000a0 6f 48 9b 3e 63 2d c8 3e bd 42 81 3f e7 03 ca 3e
       0.303287 0.39097127 1.0098492 0.39456102
0000b0 3e 88 1e 3f e6 13 81 3f cf 59 a3 3f b3 24 6a 3f
       0.6192664 1.0084198 1.2761782 0.9146225
0000c0 00 fc 0e 3f dd d0 4f 3f fa 42 3e 3e 77 c6 a8 3e
       0.5585327 0.81178075 0.18580237 0.32963917
0000d0 0b 4c 21 3f 53 6e 0a 3f e2 b7 10 40 de 47 e7 3e
       0.6300666 0.5407459 2.2612233 0.45172018
0000e0 81 f4 2b 3f 52 6c 2e 3f d8 4e 35 3f bd 82 52 3f
       0.6716996 0.68134034 0.7082343 0.8223074
0000f0 64 76 b0 3f f0 5c 63 3f c9 4e 29 3f 9f 67 96 3f
       1.378613 0.88813686 0.6613584 1.1750373

c3.0.weight f4 [64, 64, 3, 3]
000000 93 d8 79 be e8 6e db bd 55 2e 00 be ae fe 5c bd
       -0.24399023 -0.10714513 -0.12517674 -0.05395382
000010 3a c1 9f be 30 14 17 3e 43 89 89 bd 01 51 0f be
       -0.31202108 0.14753795 -0.06715634 -0.13995744
000020 2b f6 59 3e 70 fd ab 3c 9a 7f dd bc 9e 9e bf bd
       0.21285312 0.020994872 -0.027038384 -0.09356426
000030 8d 13 53 3d 4e 71 92 be 83 5d 9e bc db 8a 84 3e
       0.051532317 -0.2860207 -0.0193317 0.25887188
000040 b2 1a fb bc ec ba 2c be 5b 90 ba 3d 8d b2 1e be
       -0.030652378 -0.1686818 0.09109565 -0.15497799
000050 11 72 25 be 1a e1 1f bd cc 60 28 bd e2 d6 45 be
       -0.16156794 -0.039033033 -0.041107938 -0.19320253
000060 f9 12 b4 bd b3 eb 43 3e 80 20 f8 bd cf 35 99 bd
       -0.08792681 0.19132881 -0.12115574 -0.07480966
000070 3f b0 80 bd 2f b5 83 3b e2 f0 94 be 96 2c 2a be
       -0.06283616 0.0040194015 -0.2909003 -0.1661857
000080 b5 36 81 3e ac 89 19 be c6 29 59 3d 2d e9 45 3e
       0.2523705 -0.14993924 0.053018354 0.19327231
000090 b5 7d 61 bd 89 d0 b8 bd c9 62 9b 3c 1f 39 6f bc
       -0.055051524 -0.0902415 0.018968003 -0.014601021
0000a0 fc 5c 8a bd fb 7a cb bd 0d 29 de 3c dd 56 2d be
       -0.067560166 -0.09935566 0.027119184 -0.16927667
0000b0 56 4f 93 bd de 61 7b 3c ad 74 79 bc aa 89 6b bd
       -0.071928665 0.015343158 -0.015225572 -0.057504334
0000c0 95 f1 95 bd 47 a2 a9 bc 4c 62 0c be 37 2a 3e 3e
       -0.07321469 -0.020707263 -0.13709372 0.18570791
0000d0 dc 5b a8 3b 9d d3 ad 3c cc ad b0 bd 57 77 63 bc
       0.0051379036 0.02121907 -0.08626899 -0.013883433
0000e0 77 cb f9 bc a1 f2 7b bc 4d 6e 7e be 3e 47 64 be
       -0.030492527 -0.015377671 -0.24846764 -0.22292802
0000f0 56 c1 ec 3d a7 66 13 be 77 38 20 be 01 be 3c 3b
       0.115603134 -0.14394628 -0.1564654 0.0028799775
000100 bb d8 1e 3e b9 f0 92 bc aa ff ad bd ba e4 12 be
       0.15512364 -0.017937051 -0.0849603 -0.14345065
000110 4c 8d b4 bd 18 0f 18 bd ef e6 70 be a7 ee 38 be
       -0.08816013 -0.03712377 -0.23525594 -0.18059789
000120 81 4e 8b 3d 11 da 15 3c 35 07 c7 bd a0 2e 38 3d
       0.06802083 0.009146229 -0.097181715 0.04496634
000130 ee c3 54 be c5 1d dd bd b8 82 2c be 7b 32 76 be
       -0.20777866 -0.10796694 -0.1684674 -0.24042694
000140 ca 4d ca bd 99 c0 82 3e 68 c8 50 bd 30 6b ee bd
       -0.09878118 0.25537565 -0.050972372 -0.11641538
000150 1a 99 75 3e fd 0c 8b 3e 45 58 fc bd a3 3c f0 bb
       0.23984185 0.27158347 -0.123215236 -0.007331447
000160 09 22 c5 3e 7a 3a 5b be cb a2 5a 3e f1 eb 65 bd
       0.3850253 -0.21409026 0.21351163 -0.056133214
000170 59 94 ce 3c 3f 36 92 3d f1 48 a4 3e 7b 5f 14 3d
       0.025217222 0.07139253 0.320869 0.03622387
000180 e9 3e ae bd d8 32 4a 3e 57 2f 85 bd 13 b4 bf bc
       -0.08508093 0.19745958 -0.0650317 -0.023401296
000190 99 c3 fa bc ba 8b c0 bd 5d 78 86 bc e2 b3 f7 3d
       -0.030610846 -0.09401651 -0.016414816 0.12094857
0001a0 56 07 27 bd 58 e0 19 3d 09 96 4a 3e 6a 1a 16 3e
       -0.04077848 0.037567466 0.19783796 0.14658514
0001b0 ca c5 2c bd 49 c7 1f be b4 87 46 3c c7 db 04 bc
       -0.042180814 -0.15603365 0.012117315 -0.00810904
0001c0 6a 17 2a be 91 1a fd bc 9b b1 6f 3d 84 ed f7 bd
       -0.16610494 -0.030896457 0.058518987 -0.121058494
0001d0 7d 37 88 bc 06 54 6f bd 23 ed 2b be 6b a9 2b 3d
       -0.016628021 -0.05842974 -0.16789679 0.041909616
0001e0 a1 66 33 be 89 8a 34 be e9 b0 d6 3b 14 40 f0 bc
       -0.17519619 -0.17630972 0.006551851 -0.02932743
0001f0 a5 84 e4 3d 25 0c b4 3d 18 11 a1 3d e2 c3 1c be
       0.111581124 0.08791379 0.078645885 -0.15309098
000200 5f e7 0d bd f3 9a 0e 3e 18 51 68 3c 15 f2 ff bd
       -0.03464448 0.13926296 0.0141794905 -0.12497345
000210 80 9f bb 3c 4b e9 e0 3d fa a7 3d 3b 18 89 ca 3d
       0.022903204 0.10981997 0.0028939233 0.0988943
000220 b4 50 d9 3d 40 43 c0 3d 54 6a f7 3c 81 ad 45 3e
       0.10611096 0.09387827 0.030202068 0.19304468
000230 65 bc 9e 3e b9 74 80 bc 16 2d d3 3d 00 f6 2f 3e
       0.3100311 -0.015680658 0.10311334 0.17183685
000240 61 02 a1 3d be b6 ee 3d 41 98 21 bc b8 74 9c 3d
       0.07861782 0.11655949 -0.00986296 0.0763945
000250 97 6e 2c bd e8 c3 99 3c a6 d3 20 3e 52 43 0d bb
       -0.042097654 0.018770173 0.15705737 -0.0021555019
000260 b3 34 d7 3c b6 13 6a 3e 33 05 17 3d a4 67 10 bb
       0.026270246 0.22859082 0.036870193 -0.002203443
000270 14 d9 4a be 5e f4 15 3d 0b 1b 24 be 22 51 c8 bd
       -0.19809371 0.03661 -0.16025941 -0.097811
000280 dc 38 10 be 4a a7 bb bd 6f bd 46 be d9 2f 93 3d
       -0.1408419 -0.09162767 -0.194082 0.071868606
000290 24 5b 1d 3d a4 a1 a2 be 18 92 b5 3e 28 61 7f be
       0.038416997 -0.31763947 0.35463023 -0.24939406
0002a0 72 d5 c1 bd 08 4c ae 3e ef 18 30 3d dd 9c 1b bc
       -0.094645396 0.34042382 0.04299253 -0.009497848
0002b0 31 50 2f 3d 1a bc f5 3c 47 ab b4 bc 93 e7 d9 3d
       0.042801086 0.02999692 -0.022054328 0.106398724
0002c0 3f 7a 58 3e 06 01 a2 3d 03 f1 e9 3d ec 94 5f bd
       0.21140383 0.079103515 0.114229225 -0.054585382
0002d0 d2 d8 c9 3a ca bf c6 bd 30 a5 0b be e0 7e 19 3d
       0.00153997 -0.097045496 -0.13637233 0.037474513
0002e0 c2 24 1b 3e 81 3f 5e be 8a 6e 39 3e be 03 a3 3e
       0.1515074 -0.21703912 0.18108574 0.31838793
0002f0 93 11 15 be 99 eb 83 3d b1 d6 0a bd a1 bc a3 bd
       -0.14557485 0.06441421 -0.033896152 -0.079949625
000300 ee 03 d3 bd 1c 56 27 3d 21 5d 70 3d d5 76 b5 bc
       -0.10303484 0.040853605 0.058682565 -0.02215139
000310 60 7d d2 bd 8b 5b eb 3d 48 bd 17 be 82 dd 4e be
       -0.1027782 0.1149207 -0.14818299 -0.20201686
000320 2f 60 09 be ca 6c 32 be ee 3f ba be ab 84 a7 bd
       -0.13415597 -0.17424312 -0.363769 -0.08179601
000330 29 38 3d 3d b3 b1 83 bd 4d e5 19 be 5a f8 66 bd
       0.046196137 -0.06430378 -0.15028878 -0.05638919
000340 3a d4 88 bd f2 22 82 bb e7 b1 ab bd 2d 80 f3 bd
       -0.06681104 -0.003971451 -0.083835416 -0.11889682
000350 8a 01 ad bd ca fc 9e 3d e9 55 68 3c 70 80 75 3e
       -0.08447559 0.077630594 0.014180639 0.23974776
000360 46 d3 34 be 76 2a 65 be cf 8b 34 be e0 42 dc bd
       -0.1765872 -0.22379479 -0.17631458 -0.10754943
000370 b7 5d 51 be b0 80 28 be 8c fa 7c 3d 1f fa 3b 3e
       -0.20445906 -0.1645534 0.061762378 0.18357132
000380 c3 ee c0 3c bf c4 b9 bd 62 52 06 be 40 02 5e bd
       0.02355135 -0.090707295 -0.13117364 -0.054201365
000390 54 c2 00 be dc be 07 be e1 07 4c be 7f 0a a9 3d
       -0.1257413 -0.13256401 -0.1992488 0.08253955
0003a0 6c 0b 72 bd 86 8a 02 bd c4 d4 4c bd 97 2e 37 3d
       -0.059092924 -0.031870387 -0.050007597 0.044722166
0003b0 54 11 73 3d 90 6c f7 bd e8 79 e1 bc 05 b7 1d be
       0.059342697 -0.120812535 -0.02752395 -0.15401848
0003c0 0c 54 12 be ea 01 06 be e7 af 60 bd d7 24 cb 3d
       -0.14289874 -0.13086668 -0.054855254 0.09919136
0003d0 0b 13 5e 3d 21 1f 7b bd 24 f6 54 3d 9c df b4 bd
       0.05421738 -0.061308984 0.05199255 -0.088317126
0003e0 54 c6 74 bd fd 54 82 3d d1 b6 c5 bd 25 0b 6e bd
       -0.059759453 0.063638665 -0.0965401 -0.058116097
0003f0 44 b1 56 bd c8 5f 8a bd 63 6e a7 bc bf 51 f2 bd
       -0.052415147 -0.0675655 -0.020438379 -0.11831998

c3.2.weight f4 [64]
000000 8f 2c 48 3f ae df 53 3f 8c c7 42 3f 21 8e 54 3f
       0.7819299 0.82763183 0.76085734 0.8302937
000010 22 27 4e 3f 07 e3 32 3f bf 4f 52 3f fe a6 45 3f
       0.8052846 0.69877666 0.8215293 0.77207935
000020 40 86 5c 3f bf d5 29 3f 12 d4 2b 3f a5 cf 40 3f
       0.8614235 0.66341776 0.6712047 0.7531684
000030 21 71 48 3f cd fa 5e 3f 58 b9 3e 3f 60 09 34 3f
       0.7829762 0.8710144 0.7450156 0.70326805
000040 46 8b 4f 3f bf c1 42 3f 8e 96 4c 3f d6 2f 3e 3f
       0.8107189 0.76076883 0.7991723 0.7429174
000050 e0 6a 34 3f 27 61 1e 3f 14 1d 4b 3f 59 f1 36 3f
       0.7047558 0.6186699 0.79341245 0.7146202
000060 ea f8 29 3f e5 bf 48 3f cb 49 2c 3f 57 e6 59 3f
       0.6639544 0.7841781 0.673001 0.85117096
000070 93 c2 40 3f 6f fa 3b 3f 7a 30 4d 3f ae 8c 4e 3f
       0.75296897 0.73429006 0.80152094 0.8068341
000080 c4 c7 5a 3f 61 c5 3b 3f 6f b4 4f 3f 2f 37 33 3f
       0.8546107 0.7334805 0.81134695 0.7000608
000090 d4 5a 30 3f 93 97 43 3f fe 9f 34 3f ea 0c 6f 3f
       0.6888859 0.7640316 0.7055663 0.9337908
0000a0 69 e4 49 3f 95 72 60 3f 39 23 5b 3f 1e dd 34 3f
       0.7886415 0.8767484 0.8560062 0.706499
0000b0 ba d4 46 3f dd c6 2d 3f 9f 9c 68 3f 3f b2 2a 3f
       0.77668345 0.67881566 0.90863985 0.6667823
0000c0 9a f3 55 3f a4 46 5e 3f f8 fe 54 3f 12 b2 36 3f
       0.8357483 0.8682654 0.8320155 0.71365464
0000d0 59 d0 3f 3f 17 1e 45 3f d9 09 40 3f 8f c3 31 3f
       0.7492729 0.7699904 0.75015026 0.69439024
0000e0 7a fc 48 3f 62 45 36 3f 45 2c 27 3f 92 79 5f 3f
       0.7851025 0.7119962 0.65301925 0.87294877
0000f0 e0 5c 59 3f 42 51 29 3f c7 74 4a 3f a8 84 4b 3f
       0.8490734 0.66139615 0.7908444 0.7949929

c3.2.bias f4 [64]
000000 1b 62 27 3e 55 7e c2 3e d4 3f 94 3e 52 65 ae 3e
       0.16346018 0.3798701 0.28954947 0.34061676
000010 a9 e8 43 3e e8 de 44 3e 44 75 dc 3d b9 1e d1 3d
       0.19131722 0.19225657 0.10764554 0.10210938
000020 b7 8f 2b 3e 37 40 93 3e b4 8c cc 3d 55 f8 0e 3e
       0.16754042 0.2875993 0.099877745 0.13961919
000030 3b 28 82 3e 46 50 61 3d e7 0d ae 3e 01 12 44 3e
       0.25421318 0.055008195 0.33994982 0.19147493
000040 6e 58 91 3e f8 a4 37 3d e5 be df 3d c7 e3 9f 3e
       0.2838778 0.04483506 0.10925082 0.31228468
000050 26 6d f7 3d 9e ba c2 3d 92 49 9f 3e dc 7a 5b 3e
       0.12081365 0.09508251 0.31110817 0.21433586
000060 bf d2 81 bc dd 66 c6 3e 53 a3 cf 3e 83 41 89 3e
       -0.015847562 0.38750353 0.40554294 0.26807794
000070 ca 07 f8 3d 33 d8 b0 3e 39 99 2b 3e ab f1 96 3e
       0.12110861 0.34539947 0.16757669 0.29481253
000080 d8 bc bd 3d 46 46 bc 3d 2c 79 24 3e e1 22 72 3e
       0.09264535 0.09193091 0.16061848 0.23646118
000090 74 71 0b 3d 63 19 6c 3e b9 50 41 3e f3 be af 3e
       0.034043744 0.2305656 0.1887845 0.3432537
0000a0 a8 2d a3 3e 9e 43 4f 3d 9a b2 a9 3d 6d 91 fa 3d
       0.3187077 0.050601594 0.08286019 0.12234769
0000b0 b9 4f 34 3e dd 08 73 3e fb bc 87 bd cb cd 4a 3d
       0.17608537 0.2373385 -0.06627842 0.049512666
0000c0 c4 14 2d 3e 70 54 0c 3e 33 da de 3d 4f ee 3d 3e
       0.16902453 0.13704085 0.10881462 0.18547939
0000d0 ef 07 1a 3e 62 65 0b 3e bf 67 8c bb bf 7b eb 3d
       0.15042089 0.13612893 -0.0042848284 0.11498212
0000e0 a8 ea 8a 3d a1 fc be 3e 6a ec 5a 3e 1a e3 2c 3e
       0.067830384 0.37302116 0.21379247 0.16883507
0000f0 99 8e 05 3e c0 b9 f5 3e ad d6 01 3f 86 74 9c 3d
       0.13042678 0.47993279 0.50718194 0.076394126

c3.2.running_mean f4 [64]
000000 dd 13 b6 3e 12 e7 0d 3f 7b 7a 77 3f e2 a5 ae 3e
       0.3556203 0.5543071 0.96671265 0.34110934
000010 7e c8 22 3f 92 c6 9c 3e f0 68 a4 3d a9 ff ca 3e
       0.63587177 0.30620247 0.08027828 0.39648178
000020 0c de 0f 3e eb a1 c8 3e ee 87 98 3e ff cb 05 3f
       0.14049548 0.39186034 0.29791206 0.522644
000030 3e e6 0b 3f e0 c9 b1 3e 2a 15 17 3f 06 1f b8 3e
       0.54648197 0.3472433 0.5901667 0.3596117
000040 a5 55 09 3f 35 5c 57 3e 59 84 ba 3e 72 ca 9d 3e
       0.5364631 0.21031268 0.36429098 0.30818516
000050 f3 55 6f 3f 71 fe 1e 3f 6a 71 15 3f 81 e0 e1 3e
       0.93490523 0.62106997 0.5837618 0.44116595
000060 42 f1 55 3e 4d 30 23 3f 71 09 04 3f d1 87 87 3e
       0.20892814 0.63745576 0.51576906 0.26470807
000070 e6 20 9c 3e 00 54 34 3f 3c 18 fb 3e 52 d7 2b 3f
       0.3049385 0.70440674 0.49041927 0.6712543
000080 a3 db 0b 3f 1c 05 3b 3e e5 c8 d0 3e 79 00 bd 3e
       0.54632014 0.18263668 0.4077827 0.36914423
000090 69 80 52 3f d0 52 dd 3e 42 34 dd 3e 52 9b 54 3e
       0.8222719 0.43227243 0.43203932 0.20762375
0000a0 a3 ff 8a 3e 72 39 82 3e f8 6b 7b 3e db f8 e5 3d
       0.2714816 0.25434452 0.24552906 0.11229106
0000b0 25 e6 43 3f cc 86 85 3e b0 2a a7 3e 52 bb c7 3e
       0.7652305 0.26079404 0.32649755 0.39010102
0000c0 85 c7 51 3e 49 23 52 3e 85 fa 05 3f a6 b9 ee 3e
       0.20486267 0.20521273 0.5233539 0.46626014
0000d0 65 5c e3 3e b0 6b e9 3e 8b fd 23 3f db 61 60 3e
       0.4440643 0.45589972 0.6405875 0.21912329
0000e0 03 ad ab 3e 57 47 a7 3e 05 76 ab 3e 72 35 a4 3e
       0.33530435 0.32671615 0.3348848 0.32072026
0000f0 ee 30 9a 3e 89 a8 41 3f 81 5a c3 3e cf bd bf 3e
       0.30115455 0.7564779 0.38154987 0.374495
